data.pth (torch, 157994 bytes, 6 tensors)

l1.weight f4 [8, 2945]
0.5528097 0.5735263 0.854974 0.8572276 2.9872508 1.2379028 0.61051583 1.4711447
1.7687727 1.5182601 -0.31213075 -0.32814515 0.5495318 -2.2463078 0.51199985 5.830315
3.2500615 5.443944 3.6034412 1.0701987 0.60025585 3.208451 0.04964101 0.43375194
2.4238324 0.35136175 1.2727143 3.2445579 0.08686255 0.077327915 3.2834935 0.19001837
0.34704325 0.13255605 0.2558317 -0.8311565 5.214918 1.0438296 -0.20568098 0.5483107
0.23101956 -0.2294678 -0.831001 -3.3505113 -0.66092783 -0.5861168 0.20884977 -0.20976566
0.21280272 -1.2431409 -0.7140698 -0.22805361 0.39068368 -0.9407438 0.15769717 0.21919371
0.3700487 0.39377183 0.27072033 3.556162 -0.0760538 -0.33662802 1.8337976 0.2999522
0.43126106 -0.003147849 -0.2743641 1.004201 1.481419 0.7023517 0.58498085 0.7117245
0.57072717 0.54894847 0.9068875 0.51025736 -0.55415463 1.2839183 0.71272725 -0.36461708
-1.0245513 0.47153834 -0.04315869 3.5476131 -4.8206687 0.7156878 0.66600955 0.97710943
1.4003325 1.187531 0.66968423 -2.4524689 -0.7414458 -1.4922718 4.533948 -0.2686524
0.47977084 -0.59327066 -0.89538914 -0.21060348 -1.8291055 -1.0711058 0.23119472 -0.34739918
3.4965575 1.6543636 0.08783778 -0.60491884 0.6624786 -0.31738085 1.389834 0.5773266
2.4103498 -0.2660649 -0.07818318 2.2774928 -0.24474882 1.0161225 1.1140252 1.629654
2.4457502 1.4991508 -2.3448133 2.424255 0.2342739 5.136121 -1.7473011 3.0876834
1.1853403 -0.5642677 3.1075401 -0.15517692 0.30431294 -0.10589031 -1.5490679 0.038474947
-0.0137262335 0.8356776 -0.16816138 0.112560146 0.1395611 -0.92688155 2.8589306 1.2713683
0.4928658 -0.8245527 0.9569167 0.10118777 -1.3487402 1.8597296 0.6435378 -1.9214339
-0.005209164 -0.7793247 0.051485058 -0.16727094 1.2880722 -0.37480256 1.4897113 1.4756577
-0.5224587 1.3322315 2.2793133 2.3106494 0.13285634 0.12960716 -0.6950549 2.5553622
-1.2304481 0.91782343 0.68072504 0.90157795 2.198615 -0.4656091 -1.4916985 -0.2554364
-1.9292853 1.8148991 -1.471876 0.32343 1.0412747 -0.7431503 0.43481112 0.5003319
-0.44757 0.29559872 1.9499949 -0.38655078 1.9134817 0.09296503 0.44789943 -0.12787282
1.6992224 -0.15933229 2.247936 1.213338 -1.1716901 3.481446 1.4916654 2.167014
1.6336128 0.59066516 -1.4362571 -0.048744153 -0.526888 1.536022 0.88309073 -1.8616397
1.2149745 0.8752097 0.14257433 2.0671043 -0.3468816 -0.50760597 0.5617803 -0.20441924
0.11162996 0.8837267 -0.88123053 2.0094357 2.1582558 -0.18136966 -0.09166055 1.3684201
3.2838438 2.227373 -0.06722279 -0.10641316 1.6595533 0.2386902 -0.6114229 0.0723813
-0.14018396 1.0305245 1.8881886 1.9052392 0.31986797 1.6890842 -0.1788398 3.3303587
-0.8050125 2.2373576 -0.09350738 -0.6762657 -0.87650114 -2.0356846 -0.21171704 -1.8396811
-1.2255976 0.073022395 2.7799864 4.297888 0.26607844 1.3002495 3.2994063 3.1480064
00000000: f084 0d3f 9fd2 123f 93df 5a3f 4573 5b3f
00000010: 1e2f 3f40 9973 9e3f c44a 1c3f 784e bc3f
00000020: 2567 e23f 5956 c23f 9acf 9fbe a402 a8be
00000030: 1eae 0c3f 82c3 0fc0 6c12 033f f191 ba40
00000040: 0201 5040 ca34 ae40 c89e 6640 45fc 883f
00000050: 5eaa 193f 4357 4d40 5f54 4b3d bc14 de3e
00000060: 1220 1b40 b0e5 b33e 4de8 a23f d6a6 4f40
00000070: fee4 b13d 195e 9e3d c224 5240 2d94 423e
00000080: a7af b13e c6bc 073e 5ffc 823e acc6 54bf
00000090: 9ce0 a640 359c 853f 099e 52be 175e 0c3f
000000a0: 6490 6c3e 9bf9 6abe 7bbc 54bf c76e 56c0
000000b0: 9132 29bf c00b 16bf b7dc 553e cfcc 56be
000000c0: f5e8 593e 3e1f 9fbf 47cd 36bf e386 69be
000000d0: b107 c83e 96d4 70bf 5e7b 213e 5174 603e
000000e0: 0677 bd3e 769c c93e db9b 8a3e 2998 6340
000000f0: 18c2 9bbd 825a acbe e1b9 ea3f 5693 993e
00000100: 40ce dc3e 254c 4ebb 7479 8cbe a989 803f
00000110: 239f bd3f 52cd 333f 4ec1 153f 9433 363f
00000120: 2d1b 123f e387 0c3f c729 683f 3aa0 023f
00000130: 14dd 0dbf 6f57 a43f 4b75 363f 17af babe
00000140: 7f24 83bf 796d f13e 2bc7 30bd 180c 6340
00000150: eb42 9ac0 5137 373f 9a7f 2a3f d823 7a3f
00000160: 183e b33f 0401 983f 6d70 2b3f 40f5 1cc0
00000170: 64cf 3dbf c302 bfbf 1a16 9140 cf8c 89be
00000180: 86a4 f53e 96e0 17bf 3938 65bf 70a8 57be
00000190: 2120 eabf ff19 89bf 4fbe 6c3e 4ede b1be
000001a0: 99c7 5f40 30c2 d33f 4be4 b33d f6db 1abf
000001b0: 3398 293f be7f a2be 15e6 b13f adcb 133f
000001c0: 2c43 1a40 a939 88be 811e a0bd 71c2 1140
000001d0: 6f9f 7abe 4d10 823f 6198 8e3f 8198 d03f
000001e0: 2c87 1c40 2ce4 bf3f 6c11 16c0 fe26 1b40
000001f0: 7fe5 6f3e 1a5b a440 90a7 dfbf 9b9c 4540
00000200: 3bb9 973f d973 10bf f0e1 4640 b3e6 1ebe
00000210: e8ce 9b3e 05dd d8bd db47 c6bf e897 1d3d
00000220: ffe3 60bc f8ee 553f 7f32 2cbe ef85 e63d
00000230: 1be9 0e3e 1c48 6dbf b8f8 3640 32bc a23f
00000240: e858 fc3e e315 53bf 7ef8 743f 893b cf3d
00000250: 85a3 acbf 9f0b ee3f e5be 243f 8cf1 f5bf
00000260: a3b1 aabb d381 47bf ffe1 523d 1349 2bbe
00000270: 8ddf a43f 1fe6 bfbe dcae be3f 5ae2 bc3f
00000280: dabf 05bf 9086 aa3f 45e0 1140 aee1 1340
00000290: 7e0b 083e bdb7 043e 1eef 31bf 0e8b 2340
000002a0: 537f 9dbf 7af6 6a3f ff43 2e3f d0cd 663f
000002b0: 1cb6 0c40 5164 eebe faef bebf 8fc8 82be
000002c0: d2f2 f6bf 9d4e e83f 6f66 bcbf 9e98 a53e
000002d0: 7d48 853f 193f 3ebf 909f de3e c015 003f
000002e0: e527 e5be b758 973e 6f99 f93f fce9 c5be
000002f0: f8ec f43f 7364 be3d 1353 e53e 18f1 02be
00000300: 1f80 d93f 0128 23be 2fde 0f40 a94e 9b3f
00000310: f1f9 95bf 03d0 5e40 e4ee be3f 5bb0 0a40
00000320: 391a d13f d535 173f 46d7 b7bf f3a7 47bd
00000330: 22e2 06bf 5e9c c43f 3c12 623f 364a eebf
00000340: 4984 9b3f be0d 603f 01ff 113e 704b 0440
00000350: 779a b1be 77f2 01bf d5d0 0f3f 4753 51be
00000360: 409e e43d ea3b 623f 5398 61bf 989a 0040
00000370: dd20 0a40 f8b8 39be 87b8 bbbd 6428 af3f
00000380: 7f2a 5240 478d 0e40 1aac 89bd 25ef d9bd
00000390: 3e6c d43f 346b 743e 3686 1cbf a63c 943d
000003a0: 628c 0fbe 3ae8 833f 2ab0 f13f e1de f33f
000003b0: bcc5 a33e e933 d83f c821 37be 9924 5540
000003c0: 4d15 4ebf de30 0f40 cc80 bfbd c01f 2dbf
000003d0: 6162 60bf a848 02c0 5acc 58be ac7a ebbf
000003e0: 62e0 9cbf c48c 953d 4ceb 3140 4c88 8940
000003f0: 6f3b 883e 936e a63f 7929 5340 f078 4940

l1.bias f4 [8]
1.0471218 0.8176344 1.1419543 0.9116401 0.6705528 0.6801229 0.925091 0.9140504
00000000: 1608 863f 7d50 513f 8f2b 923f 3f61 693f
00000010: 59a9 2b3f 891c 2e3f c4d2 6c3f 35ff 693f

l2.weight f4 [8, 8]
1.8793894 1.5175699 0.6887399 -1.1925093 2.536144 -1.1511167 0.9869646 -2.7934332
-1.1858294 1.2830139 -0.45615596 3.560129 0.7570389 3.5071425 -2.0296571 -0.6123223
-1.3304949 2.1934016 0.0399413 1.1950277 -1.4226948 -1.7352402 1.5204031 0.35472107
2.79374 1.9467604 -3.8340566 0.9421166 -0.06395851 -1.7201357 0.08469169 2.6761086
2.417499 -1.2735965 2.6978502 0.034280024 -3.511521 2.3296018 1.2932401 0.49333155
-0.513746 -0.33600828 -0.6834587 0.46530554 1.6053023 1.088014 2.5747085 -1.0048239
2.3467877 -2.4337676 1.16189 1.9034882 2.4394383 -2.4098167 -0.9157373 1.4297085
-0.685057 2.4253228 2.2318728 -2.4724457 1.4675502 2.6032279 -1.5552926 3.2799504
00000000: d58f f03f bb3f c23f 4251 303f 25a4 98bf
00000010: 2f50 2240 cb57 93bf b6a9 7c3f 9cc7 32c0
00000020: 42c9 97bf cd39 a43f 468d e9be 27d9 6340
00000030: 4dcd 413f 0675 6040 e7e5 01c0 27c1 1cbf
00000040: a84d aabf b160 0c40 7d99 233d abf6 983f
00000050: dd1a b6bf 5a1c debf 929c c23f 009e b53e
00000060: a3cc 3240 722f f93f 2f61 75c0 8e2e 713f
00000070: aefc 82bd 682d dcbf d672 ad3d 5d45 2b40
00000080: 4eb8 1a40 3605 a3bf 94a9 2c40 3669 0c3d
00000090: c3bc 60c0 3218 1540 e488 a53f f495 fc3e
000000a0: dc84 03bf 4709 acbe 26f7 2ebf 873c ee3e
000000b0: 8c7a cd3f 0b44 8b3f 06c8 2440 129e 80bf
000000c0: c531 1640 d9c2 1bc0 d0b8 943f 80a5 f33f
000000d0: c21f 1c40 703a 1ac0 c26d 6abf b000 b73f
000000e0: e55f 2fbf 7d38 1b40 01d7 0e40 8d3c 1ec0
000000f0: afd8 bb3f 499b 2640 d413 c7bf b5ea 5140

l2.bias f4 [8]
1.3309147 -0.08686378 0.38421327 -0.029467326 -0.62326354 -0.5818599 -0.2301883 -0.7498599
00000000: 6a5b aa3f a3e5 b1bd 9ab7 c43e 7665 f1bc
00000010: 338e 1fbf c5f4 14bf 7bb6 6bbe d2f6 3fbf

l3.weight f4 [110, 8]
-0.65173995 -0.8710479 0.3009257 -0.28754804 0.03647393 -0.3422311 -14.86032 -1.6080087
1.8381113 -16.033098 -0.9050724 1.0935423 -0.9677733 -1.7511615 -0.9869854 -7.085809
-1.1606723 0.5108398 -0.7631981 -1.3696258 0.27401155 -1.6680831 -1.1120976 -0.38753894
-10.424169 0.60261375 -6.766886 -2.156871 1.1282768 -9.109424 -8.961405 -0.22515419
0.66623974 1.1587248 -15.3902855 -21.399721 -1.2744924 -1.1526271 -0.5912729 -1.161922
1.421778 -6.876709 0.7673141 -0.65275276 -7.057352 -1.826717 -14.559609 -0.7307749
0.3102651 0.0711994 -10.81057 -2.0934956 -15.828432 0.6534346 -0.2730946 -1.5540378
0.004484715 -17.027203 0.30966145 -7.3458505 0.3508392 -1.175265 -0.6500897 0.19194178
0.5396491 -16.451164 -0.6363313 -2.011097 -0.29976046 -0.1593163 -0.33799145 -0.11164063
0.13067785 -4.124665 -0.30434933 -16.78812 0.014929733 -0.4435294 -0.09676384 0.38084012
0.4059876 -5.2462974 -0.5996443 -2.0096002 -7.36734 0.055595875 -0.1539365 -0.20146409
0.13600305 -1.4646616 -1.2561884 -1.8297526 -0.47123566 -0.5513376 -2.1683955 0.48489854
-8.570127 -4.816163 -0.39383808 -6.9970193 0.67066705 -0.5063846 1.4496617 -0.97062564
-5.6726832 -6.0789723 -0.3127712 2.1338308 -0.7157147 -0.9994857 -1.0973063 -1.2159746
0.10563749 -4.968082 -3.5383444 1.3586326 -1.880938 0.35049233 -1.9307674 -1.0491146
-22.752983 0.56539893 -0.47962105 0.33989683 -0.23908463 -1.886429 -3.2912557 -0.012516614
0.8699829 -17.732775 -8.696236 -5.5233736 1.2227477 -3.3712964 0.4479737 -0.10021053
-2.4922864 0.6658867 -0.053011175 0.4164251 -0.673211 -4.017858 -2.1072717 0.058878977
0.07779642 -2.773867 -3.6079967 -0.25754744 0.81166255 -4.8226705 -0.14468546 0.11209019
-2.9629557 -3.840138 3.7260363 -3.9555519 -0.43927804 -9.136794 -0.015884394 -0.08009563
0.50757504 -0.23936436 -0.4724723 0.26961684 -1.7785596 -1.6788416 -0.15241863 -2.1032536
-0.9670969 0.15115447 -2.665356 0.5836081 -1.6430914 -5.299353 -0.35101053 0.57935447
-0.7383258 -0.567566 -1.1049227 0.3886582 -1.0032169 -1.484344 -1.1892165 0.7439514
-0.68514234 -2.5086408 -1.2812923 0.23026764 -0.13438326 -0.5027902 0.79462004 -0.54667544
1.4710916 -9.095353 -10.300208 1.4668224 -6.3638916 -2.6550117 -0.9843948 -2.3395824
0.34080684 -0.11568536 0.03331963 -0.43070295 -1.613253 -1.2778181 -15.942401 -0.71331584
-3.0493562 1.396483 -3.613352 -10.11492 -0.6293878 1.2047433 -12.00163 -3.2252429
-1.7603791 -0.07905896 -1.5025272 -14.391358 0.39869693 -0.33119264 -0.6120573 -0.2413523
-1.9354148 1.5225931 1.453234 -14.136062 -5.6368947 -0.7170114 -3.3071632 0.8396027
0.30822226 -10.545177 -4.174814 0.2915925 -0.45438293 0.59121823 -7.1950502 -0.7590143
-0.10332155 -12.632663 -0.052295472 1.0001134 -2.796337 0.2840495 -2.61448 -6.9870143
-0.6579994 -0.60272574 -0.15788206 0.11861431 -7.663494 -0.77303183 -6.104032 0.776503
00000000: 6ed8 26bf fffc 5ebf ef12 9a3e 7f39 93be
00000010: b065 153d ea38 afbe dfc3 6dc1 3bd3 cdbf
00000020: 3b47 eb3f c943 80c1 d3b2 67bf 32f9 8b3f
00000030: febf 77bf 0f26 e0bf 13ab 7cbf f3be e2c0
00000040: e990 94bf 66c6 023f f360 43bf e64f afbf
00000050: 3e4b 8c3e bf83 d5bf 3759 8ebf 816b c6be
00000060: 65c9 26c1 e544 1a3f 558a d8c0 2d0a 0ac0
00000070: 606b 903f 33c0 11c1 ea61 0fc1 d28e 66be
00000080: b08e 2a3f 1851 943f 9c3e 76c1 a132 abc1
00000090: 9122 a3bf 4989 93bf a95d 17bf dcb9 94bf
000000a0: d2fc b53f 000e dcc0 b26e 443f ce1a 27bf
000000b0: d4d5 e1c0 ddd1 e9bf 29f4 68c1 1014 3bbf
000000c0: 11db 9e3e fed0 913d 18f8 2cc1 d5fb 05c0
000000d0: 4241 7dc1 7d47 273f 0ed3 8bbe b6ea c6bf
000000e0: 84f4 923b b637 88c1 f28b 9e3e 3511 ebc0
000000f0: 32a1 b33e 156f 96bf 476c 26bf 638c 443e
00000100: 7226 0a3f fc9b 83c1 9ce6 22bf d0b5 00c0
00000110: 347a 99be d023 23be 370d adbe d8a3 e4bd
00000120: 6ad0 053e 41fd 83c0 add3 9bbe 124e 86c1
00000130: d79b 743c 4916 e3be 1f2c c6bd 7afd c23e
00000140: 9bdd cf3e abe1 a7c0 4a82 19bf 4a9d 00c0
00000150: 40c1 ebc0 80b8 633d 88a1 1dbe 9a4c 4ebe
00000160: 6244 0b3e 087a bbbf c8ca a0bf 5535 eabf
00000170: cd45 f1be 7624 0dbf fec6 0ac0 9f44 f83e
00000180: 3d1f 09c1 021e 9ac0 25a5 c9be 95e7 dfc0
00000190: d6b0 2b3f 6ca2 01bf 848e b93f ec7a 78bf
000001a0: 9f86 b5c0 f186 c2c0 8c23 a0be af90 0840
000001b0: 1439 37bf 4bde 7fbf 8874 8cbf 0ea5 9bbf
000001c0: 7858 d83d 87fa 9ec0 3c74 62c0 ace7 ad3f
000001d0: 94c2 f0bf bb73 b33e 6323 f7bf 6349 86bf
000001e0: 1c06 b6c1 fcbd 103f e490 f5be f506 ae3e
000001f0: 9ad2 74be 8176 f1bf efa3 52c0 7c12 4dbc
00000200: 33b7 5e3f b9dc 8dc1 c823 0bc1 7abf b0c0
00000210: ff82 9c3f 52c3 57c0 cf5c e53e 2e3b cdbd
00000220: 9f81 1fc0 8d77 2a3f 3f22 59bd ac35 d53e
00000230: 8e57 2cbf 4b92 80c0 8add 06c0 152b 713d
00000240: bb53 9f3d 0987 31c0 6be9 66c0 42dd 83be
00000250: 1ec9 4f3f 5153 9ac0 6d28 14be 8b8f e53d
00000260: 11a1 3dc0 d2c4 75c0 6177 6e40 c327 7dc0
00000270: 0de9 e0be 4f30 12c1 fd1f 82bc 2d09 a4bd
00000280: 70f0 013f ee1b 75be e4e7 f1be 380b 8a3e
00000290: d7a7 e3bf 48e4 d6bf a113 1cbe b59b 06c0
000002a0: aa93 77bf 3dc8 1a3e 3195 2ac0 5767 153f
000002b0: d250 d2bf 4d94 a9c0 a7b7 b3be 9350 143f
000002c0: eb02 3dbf 014c 11bf 1b6e 8dbf 35fe c63e
000002d0: 6969 80bf fcfe bdbf 3f38 98bf 9973 3e3f
000002e0: 7d65 2fbf 928d 20c0 6301 a4bf 48cb 6b3e
000002f0: c49b 09be dcb6 00bf 386c 4b3f ecf2 0bbf
00000300: bb4c bc3f 9186 11c1 a7cd 24c1 d6c0 bb3f
00000310: 00a5 cbc0 b6eb 29c0 4c01 7cbf b8bb 15c0
00000320: 3c7e ae3e 72ec ecbd 2a7a 083d 1985 dcbe
00000330: 137f cebf 8b8f a3bf 1314 7fc1 de9b 36bf
00000340: a728 43c0 f4bf b23f 2941 67c0 b6d6 21c1
00000350: 8f1f 21bf 0735 9a3f ad06 40c1 616a 4ec0
00000360: 1a54 e1bf aae9 a1bd d052 c0bf 0143 66c1
00000370: 0122 cc3e 1592 a9be caaf 1cbf 0f25 77be
00000380: acbb f7bf 55e4 c23f 9203 ba3f 4f2d 62c1
00000390: 7161 b4c0 0f8e 37bf 90a8 53c0 34f0 563f
000003a0: 4fcf 9d3e 0cb9 28c1 1498 85c0 9d4b 953e
000003b0: e1a4 e8be 145a 173f da3d e6c0 c34e 42bf
000003c0: 409a d3bd 631f 4ac1 c733 56bd b703 803f
000003d0: 2ff7 32c0 f06e 913e a453 27c0 9f95 dfc0
000003e0: a672 28bf 3c4c 1abf d6ab 21be 0fec f23d
000003f0: 583b f5c0 6ae5 45bf 3b54 c3c0 e7c8 463f

l3.bias f4 [110]
-0.67058367 -6.698979 -0.5842258 -3.8558602 0.40365884 0.010224398 3.971306 0.65127623
-0.1585866 0.564711 0.10616613 0.34351182 -3.2911952 -3.1499317 -4.5865827 -0.31358448
-2.7522724 0.5214784 0.22722274 -0.6348621 0.05229519 0.42372978 -1.4584757 -1.5157919
-1.7055278 0.42010778 -5.5353274 -0.56336045 -4.338911 -6.143634 -7.278678 -0.14352545
0.5280325 -2.5992186 -6.694163 0.37525305 -0.68881357 -1.27296 -2.6480224 -1.7732391
0.28560692 0.41499892 1.6299362 -1.2118223 1.3997748 -0.1414673 0.55037314 -3.1333022
-1.8394735 -2.930322 1.0857809 0.81966954 -4.034963 -1.0133889 0.26705036 -0.4363918
1.4386239 -0.9724411 -1.3038824 -1.2245123 -4.32618 -0.5000023 -0.77992696 2.052415
-0.34125432 -2.6909635 0.17436656 -1.0351937 -3.044839 -0.5439161 -3.3286629 -0.1239786
-0.87568533 -0.81936914 -4.4772305 -0.63880646 -1.5221356 -1.9188523 0.7548978 -0.21579394
-0.68112725 -13.044121 -1.8217487 -0.9890376 -2.7640548 0.9725233 0.8965607 -0.12316112
2.227126 -1.699419 -0.595547 0.6529994 -4.5739284 -0.16623423 -3.2066891 -4.556634
-8.352758 -0.6674595 0.111143194 -5.4747963 -7.348191 -0.07197494 -1.1620617 -1.240645
0.7212001 -0.30253866 -0.235378 -5.7125535 0.38620782 -3.5615275
00000000: 5fab 2bbf 095e d6c0 d28f 15bf 6ac6 76c0
00000010: 5fac ce3e 3c84 273c e129 7e40 0aba 263f
00000020: 8764 22be e690 103f a16d d93d c8e0 af3e
00000030: f1a2 52c0 7b98 49c0 49c5 92c0 258e a0be
00000040: 3b25 30c0 9c7f 053f 14ad 683e 5386 22bf
00000050: 7b33 563d 1cf3 d83e 55af babf 7805 c2bf
00000060: bc4e dabf 5e18 d73e 6721 b1c0 6438 10bf
00000070: 5cd8 8ac0 a698 c4c0 eeea e8c0 56f8 12be
00000080: 232d 073f 9959 26c0 9536 d6c0 2b21 c03e
00000090: 1656 30bf 5af0 a2bf 3379 29c0 80f9 e2bf
000000a0: 123b 923e bd7a d43e c0a1 d03f fe1c 9bbf
000000b0: d22b b33f cedc 10be 41e5 0c3f 0688 48c0
000000c0: de73 ebbf 658a 3bc0 defa 8a3f ddd5 513f
000000d0: 6b1e 81c0 bab6 81bf d3ba 883e bf6e dfbe
000000e0: d424 b83f e6f1 78bf 9ee5 a6bf d2bc 9cbf
000000f0: 1170 8ac0 2700 00bf 4ba9 47bf c45a 0340
00000100: e3b8 aebe bf38 2cc0 268d 323e 3a81 84bf
00000110: a4de 42c0 163e 0bbf d008 55c0 7ee8 fdbd
00000120: ea2c 60bf 2dc2 51bf 7945 8fc0 d288 23bf
00000130: 57d5 c2bf f49c f5bf fb40 413f 16f9 5cbe
00000140: 5b5e 2ebf b8b4 50c1 102f e9bf 9131 7dbf
00000150: 46e6 30c0 49f7 783f 0185 653f e63b fcbd
00000160: 3b89 0e40 9086 d9bf c575 18bf f82a 273f
00000170: 9f5d 92c0 4e39 2abe 653a 4dc0 f2cf 91c0
00000180: e6a4 05c1 a0de 2abf 0b9f e33d 8831 afc0
00000190: 6124 ebc0 9967 93bd 70be 94bf 75cd 9ebf
000001a0: 92a0 383f 59e6 9abe ee06 71be 3dcd b6c0
000001b0: 08bd c53e 11f0 63c0
