data.pth (torch, 8554 bytes, 6 tensors)

l1.weight f4 [8, 106]
000000 4d 56 84 3f 2d e3 76 3e 01 a8 06 3f 16 04 e7 3e
       1.0338837 0.24110098 0.52600104 0.45120305
000010 86 e1 df 3e 65 8a d0 3e 6c ae b9 be 86 97 d0 3d
       0.43726748 0.40730587 -0.36265886 0.10185151
000020 41 56 17 3e 95 06 06 3d 2b 79 d5 3e 57 38 f1 be
       0.14778997 0.03272112 0.41694006 -0.47113296
000030 b1 e9 46 3d 9e 4b 9d 3e 28 cd 9a 3e 90 00 7b 3f
       0.04856271 0.30721754 0.30234647 0.98047733
000040 21 36 75 bd be a2 ef 3d ec 2a 5a bf 23 16 3f bf
       -0.059866074 0.117009625 -0.85221744 -0.7464315
000050 22 43 0e 3f a4 03 c7 3e 29 d1 05 3f 1d ee 89 3e
       0.55571187 0.38869965 0.5227228 0.2693948
000060 6b 29 7e bd cb fc e2 be e3 17 1f 3f 98 ee cf ba
       -0.062051218 -0.4433349 0.62145823 -0.0015863953
000070 f9 cd fe bd 0a 6b 49 3e ad 1a 75 3e 62 fb 37 3e
       -0.1244163 0.19669738 0.23935957 0.17966989
000080 a6 a6 85 3e 6a c6 14 3e 3d 92 fd be d8 7d 6a 3f
       0.26103705 0.14528814 -0.49525633 0.9159827
000090 d3 db 96 3e c0 a2 09 3f 34 b3 fe 3e 16 86 10 3e
       0.29464588 0.5376396 0.49746096 0.1411365
0000a0 fe 7e 77 3d a4 c4 ac 3e b2 f2 2b be 49 ee 91 be
       0.060423844 0.33743775 -0.167918 -0.2850211
0000b0 03 aa d9 bb d3 26 ca be 52 5d 21 bf e0 a3 e0 bd
       -0.0066425814 -0.39482746 -0.6303302 -0.10968757
0000c0 1c f7 02 3e 7f 6f 3e bf 50 a4 8f be 60 06 65 3e
       0.12789577 -0.7438888 -0.28055048 0.22365713
0000d0 de 81 71 3e a7 81 83 3f 9c 78 a7 bc 8a 9a 04 bd
       0.23584697 1.0273942 -0.020443253 -0.032373942
0000e0 41 89 e9 3e 97 41 82 be 13 70 bb be 67 b6 cd 3e
       0.4561253 -0.25440666 -0.36608943 0.40178224
0000f0 76 21 67 3e b7 93 72 3e bb 49 86 3e 81 1e e1 3e
       0.22571358 0.23689161 0.26228127 0.43968585
000100 ba 2d bd bd 42 f5 ed 3e 30 5b 66 3e b8 62 31 3f
       -0.09237237 0.4647618 0.22495723 0.6929126
000110 23 43 8f 3e 2f f6 1e 3e 31 01 0a 3f 51 77 2a 3d
       0.2798091 0.15523599 0.5390807 0.041617695
000120 e4 05 96 be 5b 5c 63 be b7 02 b9 3e 03 67 01 bd
       -0.2930137 -0.222032 0.36134884 -0.03159238
000130 cf fe 0a bf dd 83 2b be 1d 96 0f 3f f5 40 17 3f
       -0.5429506 -0.1674952 0.5608843 0.5908349
000140 76 0a c5 3d a1 67 73 3e 48 65 d2 3e 17 70 74 3d
       0.09621136 0.2377 0.41092896 0.05967721
000150 fb 16 fc 3d bc 11 4c 3e 35 91 e2 3d ff 34 bd 3e
       0.12309071 0.1992864 0.11062852 0.36954495
000160 17 02 9d 3e 41 c8 b1 3e 2b 1b 28 3f c4 26 9d bd
       0.30665657 0.34723094 0.65666455 -0.076734096
000170 df 6a 4e be 2d cd 3e 3e 1e e8 d1 3e f6 3a 9b 3e
       -0.20157956 0.18632956 0.40997404 0.3031842
000180 b7 02 23 3f ba 28 4e 3f 5d fa 4d be 71 a3 c8 be
       0.6367602 0.80530894 -0.20115037 -0.39187196
000190 da b2 b1 3e 6d 3f 13 3f 49 a9 0c 3e 48 44 a5 3e
       0.34706765 0.57518655 0.13736452 0.32278657
0001a0 66 8c 45 bf 98 19 c8 be 47 8a 23 bf d7 ee c1 3e
       -0.77167356 -0.39082026 -0.6388287 0.37877533
0001b0 d4 9b fc be 1b 82 d7 3e a9 b1 51 be 38 b5 32 bd
       -0.49337637 0.4209145 -0.20477928 -0.043629855
0001c0 6e 39 24 3f 70 eb 0a be 10 83 8d be af 4a 96 be
       0.6415013 -0.13566375 -0.27639055 -0.29353854
0001d0 06 f4 5d be 0e 2c 3e 3f 55 61 be 3e 9e f3 54 3e
       -0.21675119 0.7428597 0.37183633 0.20796058
0001e0 5e df 39 be ce 37 c4 bd ab d4 5b be 58 8a 30 3e
       -0.18151614 -0.095809564 -0.21467845 0.17240274
0001f0 24 f3 59 bf f2 81 08 bf 92 9c 39 be 71 6d 77 bd
       -0.8513663 -0.5332328 -0.18126133 -0.060407106
000200 60 15 78 be be 39 6d be ff 1e 2b be 8f 83 d2 be
       -0.24226904 -0.23166558 -0.16711043 -0.41115996
000210 a0 94 1c be b6 ce 04 be 01 ae b2 3e a6 15 36 be
       -0.15291071 -0.12969479 0.3489838 -0.17781696
000220 76 f2 1f be 14 3d 13 bf 1a c4 ca 3e 88 0f 7b 3e
       -0.15619835 -0.5751507 0.3960274 0.24517643
000230 56 5f 8d 3e c8 95 cc be ae bf cb 3e b4 fe d4 bd
       0.27611798 -0.39958024 0.39794677 -0.10400143
000240 7a 94 dd bd 8f 05 d9 be 49 c9 98 3e 80 7d 16 3e
       -0.10819335 -0.42387053 0.29841068 0.14696312
000250 20 75 f9 bd 8e 25 7e 3e 8e e8 a3 3e 9c 48 4f 3e
       -0.12180543 0.24819013 0.32013363 0.20242542
000260 c3 7e 1b 3f ad 26 26 3f a3 e3 04 3f a0 2f 84 3f
       0.607403 0.64902765 0.51909846 1.0327034
000270 a6 22 07 3f ea 76 00 3f 3f f1 3c be 47 95 e7 be
       0.52787244 0.5018145 -0.18451403 -0.45231077
000280 59 e8 a1 3e 72 3c a0 3e 7f 23 08 3e 49 92 0e 3f
       0.3162258 0.31296116 0.1329479 0.55691963
000290 67 f9 a1 3e c6 05 10 be 28 bb b7 3d cd 5a 55 3e
       0.3163559 -0.14064702 0.08971244 0.20835419
0002a0 05 b1 95 3e 02 56 09 be 24 5d c1 3e 9e cc 3a bf
       0.29236618 -0.13411716 0.37766373 -0.7296847
0002b0 bc 8f 93 be 9a ff 8c be 5b 00 79 bd 58 50 c9 bd
       -0.28820598 -0.2753876 -0.060791355 -0.098297775
0002c0 d7 46 99 be f0 e8 25 3f 58 1e 07 3f d8 5f 77 3e
       -0.2993686 0.6480856 0.52780676 0.24157655
0002d0 bb 14 41 be b5 25 09 bd b6 9c e5 be 10 9c 4e 3f
       -0.18855564 -0.033483226 -0.44846123 0.8070688
0002e0 cb 30 fb 3e 87 84 f9 3e 0a 33 07 3e 6d 81 7e 3e
       0.49060664 0.48733923 0.13203064 0.2485406
0002f0 56 2b 5c 3f 97 0c 8a 3c 96 8a 25 be 22 6b bf bd
       0.86003625 0.016851706 -0.16166148 -0.09346606
000300 39 b2 c0 be 61 1d 17 3c 32 07 a8 3e 82 96 8f 3e
       -0.37635973 0.009223313 0.3281799 0.28044516
000310 bb c2 01 be 2a b0 35 3f 29 5e 1e 3f 49 c6 8d be
       -0.1267194 0.7097193 0.61862427 -0.27690342
000320 b1 6c d6 be 3c cd 11 be 9e 20 b0 be 36 97 9b be
       -0.418798 -0.14238447 -0.34399885 -0.30388802
000330 f3 80 ab 3e 65 bf 05 bf de 01 3a 3c 25 24 47 be
       0.33496818 -0.5224517 0.011352984 -0.19447382
000340 81 55 0a 3f 8d 88 77 3e a6 02 83 3f 3f ce 3a 3f
       0.5403672 0.24173184 1.0235183 0.72970957
000350 3b 4d 7c bf fa bd 82 3e d7 ec f8 bc fd 5f a0 be
       -0.98555344 0.25535566 -0.030386372 -0.31323233
000360 95 cf 9f be ff 2a 21 3f 21 a4 2d 3f f1 6d 83 3e
       -0.3121306 0.6295623 0.67828566 0.25669816
000370 80 c9 68 3e f6 42 d3 3d 8e 0e f2 3d 31 22 bc 3e
       0.22733116 0.10315506 0.11819182 0.36744836
000380 d4 a2 26 be 68 0a bf 3e f8 a4 00 3e 9b f8 db be
       -0.16273052 0.37312627 0.1256293 -0.42963108
000390 e3 6c c8 3e e2 51 58 be 85 14 1b 3f 09 b4 04 3f
       0.39145574 -0.21124986 0.60578185 0.5183721
0003a0 2b c4 64 3f 0d 8f 0f 3f f3 2a 39 3e 0b 3f 33 3e
       0.8936183 0.56077653 0.1808279 0.17504518
0003b0 d7 f6 82 3e 3e 0c cf 3e c0 6d 5a 3f 67 60 4a 3e
       0.2557895 0.40439028 0.85323715 0.19763337
0003c0 0f 61 15 3f 7c 88 b2 3e 27 2b ee 3e ee 7a f6 3e
       0.58351225 0.34869754 0.46517298 0.48140663
0003d0 93 cd 63 3e 72 be 7e 3e d6 2b 07 bf eb 80 91 3e
       0.22246389 0.24877337 -0.52801263 0.2841867
0003e0 8f 12 51 3e b2 93 b2 3e 07 24 9f 3e 42 75 ce 3e
       0.20417236 0.34878308 0.31082174 0.40323836
0003f0 f8 28 9e be e3 0e 88 3e 66 57 b4 3d 40 8a 7c be
       -0.30890632 0.26573858 0.088057324 -0.24662113

l1.bias f4 [8]
000000 b5 31 5a 3f f7 f7 59 3f c9 4b 7c 3f 88 88 91 3f
       0.85232097 0.8514399 0.9855314 1.1369791
000010 9b a0 30 3f a4 b2 3a 3f 28 36 5d 3f 4e 1f 37 3f
       0.68995064 0.72928834 0.8641076 0.7153214

l2.weight f4 [8, 8]
000000 9b e1 08 3f 37 07 af 3f 76 64 3d 3f 89 11 12 bf
       0.53469247 1.3674077 0.73981416 -0.57058007
000010 bd d5 b1 3f e5 33 9e 3e 07 f0 d5 bf 29 71 af 3d
       1.3893353 0.30898967 -1.6713876 0.085665055
000020 6f 01 43 3f 04 f7 4c 3e 65 2f d5 bf 98 f2 ba 3f
       0.7617406 0.20016104 -1.6655089 1.4605284
000030 9e 5b 8e 3f 38 72 4d 3f 9b e8 a3 3f 13 8c de bf
       1.1121709 0.8025241 1.280536 -1.7386497
000040 3d 5f 79 bf 97 b8 86 3d 33 b3 f2 3f 6c 80 d0 3f
       -0.9741095 0.065781765 1.8960937 1.6289191
000050 fc 29 90 3f fa 41 68 be 60 8a 32 bf 51 64 82 3f
       1.1262813 -0.22681418 -0.69742393 1.0186864
000060 6d 04 48 bd 67 fb ba 3f 78 f8 e6 3d 73 2a 12 bf
       -0.048832346 1.4607972 0.112778604 -0.5709602
000070 13 0a e8 3d 57 6c 9a 3f 18 fd f9 be 05 da 5f be
       0.113300465 1.2064313 -0.48825908 -0.21860512
000080 42 e7 d2 3f a6 8d 4e bf 19 1c 13 be 65 4d 98 bf
       1.6476824 -0.8068489 -0.14366187 -1.1898619
000090 97 45 a6 3f c4 23 92 3f bc 57 ac 3e 8b b5 ca 3f
       1.2989987 1.1417165 0.33660686 1.5836653
0000a0 2c 27 3e 3f e8 3e a4 bf c7 fe b7 3f 73 e3 96 3f
       0.7427852 -1.2831697 1.4374627 1.1788162
0000b0 19 c1 15 be e9 bd 91 bf 4e 94 90 3f ad 14 e2 3f
       -0.14624442 -1.1386081 1.1295259 1.766256
0000c0 1f ef 95 bf 39 a7 da 3f 16 06 0f bf 5d 1a bd 3f
       -1.1713599 1.7082282 -0.5586866 1.477367
0000d0 df 94 1c 3f 06 9e b6 3f d0 7f 55 bf 9b 70 89 3e
       0.6116466 1.4266975 -0.8339815 0.26843724
0000e0 9d 24 91 3f 00 72 f5 3f ff 61 86 be 30 6e c0 3e
       1.1339298 1.9175415 -0.2624664 0.37584066
0000f0 af 5b 9b bf 43 87 5c 3f 60 e0 85 3f b3 b6 cb be
       -1.2137355 0.86143893 1.0459099 -0.39787826

l2.bias f4 [8]
000000 11 c0 17 3e 98 86 34 3f 33 9b cb 3e b5 2b 7f be
       0.14819361 0.70517874 0.39766845 -0.24919017
000010 75 22 0f 3a cd 50 82 3e 8f fe 96 3e 40 bf 3a 3f
       0.00054601516 0.2545227 0.29491088 0.72948074

l3.weight f4 [15, 8]
000000 2d ba 96 bf 09 5c eb 3e 0f 8d 31 be 59 11 d3 be
       -1.1775566 0.45968655 -0.17338966 -0.41224173
000010 11 b3 08 c0 5c 02 33 3f ba e3 bb bf 14 22 aa bd
       -2.1359293 0.69925475 -1.4678872 -0.08307281
000020 e1 69 04 c0 71 dd 3b bf b1 9c 44 3f a0 88 4b c0
       -2.0689623 -0.7338477 0.7680159 -3.180214
000030 5b f3 92 bf 6a 1c 36 3f e3 c1 79 3e 41 cb ff bf
       -1.1480516 0.71137106 0.24390368 -1.9983903
000040 ed 78 5c 3f b9 ad 15 bf ec 26 f4 3e 3e e8 32 3f
       0.8612202 -0.58468205 0.47685945 0.69885623
000050 24 b1 f9 bf ad 8d 17 c0 8f 20 ac 3e 24 8d b5 be
       -1.9507184 -2.3680222 0.3361859 -0.35459244
000060 81 b4 90 bf da 73 5c 3f d0 08 b7 bf 4b 4f fb bf
       -1.1305085 0.86114275 -1.4299564 -1.9633573
000070 f4 39 03 c0 63 69 63 be 58 ea 2e be c0 a3 24 3f
       -2.0504122 -0.2220817 -0.17081583 0.6431236
000080 8d 5b 79 bf 0d 1c 4d bf c9 2e c5 bf db d2 26 bf
       -0.9740532 -0.8012093 -1.5404903 -0.6516549
000090 4a cc 6a 3f 3e 71 4f 3e 64 f0 0a be 54 8e 0b bc
       0.9171797 0.20258042 -0.13568264 -0.00851782
0000a0 58 9e 0e bf 4b cc 8c bf 8e ef d5 3e 99 1d 12 c0
       -0.55710363 -1.0999845 0.41784328 -2.2830565
0000b0 1d 1e dd 3e 25 2e 06 3f c2 22 b9 bf 01 56 1a c0
       0.43187037 0.5241416 -1.4463732 -2.4114993
0000c0 c8 53 04 c0 3c 3d be bf 39 1f a2 3e 5d 25 fc bf
       -2.0676136 -1.4862437 0.31664446 -1.9698902
0000d0 c7 0a c7 bd 7f 6f c5 3e 1d c5 9b bf f7 0e a1 3e
       -0.097188525 0.38561627 -1.2169529 0.3145673
0000e0 fa 67 f4 3e c4 57 63 bf 75 b8 0f 3f 11 58 b1 bf
       0.47735578 -0.88805795 0.56140834 -1.3855001
0000f0 cb c7 02 c0 02 06 ab bd 75 b1 54 3e 83 de 49 be
       -2.0434444 -0.08350755 0.2077082 -0.19713788
000100 3b d5 02 c0 a8 22 b5 3e db 96 dd bf 76 ad 69 3f
       -2.0442646 0.35378003 -1.7311662 0.91280305
000110 09 56 86 bf 38 07 c5 bf b1 68 db 3e 40 d6 08 3f
       -1.0495006 -1.5392828 0.4285331 0.5345192
000120 03 6a e6 bf 51 ec 6d 3f 0a 4c c7 bf 00 22 eb bf
       -1.8001102 0.92938715 -1.557008 -1.8369751
000130 33 0e 8c 3e 5a b2 13 bf 46 a7 af bf 2f e0 96 3d
       0.27354583 -0.5769402 -1.3722923 0.073669784
000140 6a b3 eb be 67 9c f6 3e 16 65 c6 3d 03 a4 20 bf
       -0.4603532 0.481662 0.09687249 -0.6275026
000150 c1 35 d3 bf f4 81 d5 bf 99 e9 3f 3f 2b b3 c7 bd
       -1.6500779 -1.6680284 0.74965817 -0.097509705
000160 97 ca 91 bf 8d 74 18 3f 0c 0f a2 3e ad 56 eb bf
       -1.138995 0.5955284 0.31652105 -1.8385826
000170 df e3 28 be 6d b0 be be ae 9c cd 3d 1d bb 73 bf
       -0.16493176 -0.37243977 0.1003965 -0.9520739
000180 9f 26 2d 3f 1e 18 a0 bf 8d 00 73 be 98 34 61 bf
       0.67637056 -1.250736 -0.23730679 -0.87970877
000190 ac ba 5c 3f 1e 8e cb be fa f0 0c bf 4c 5c b6 bf
       0.8622234 -0.39756864 -0.550552 -1.4246917
0001a0 f5 9a 4d 3e 80 ed 39 bf e1 d3 0a 3e 36 51 8b 3e
       0.20078643 -0.7262802 0.13557388 0.27210397
0001b0 aa 78 21 3d 92 5d 7c bf ac a3 df 3e 09 88 51 bf
       0.039421715 -0.98580277 0.4367956 -0.818482
0001c0 53 c5 98 3e 3c 88 af be 6a dc bf bf 78 b5 4d 3f
       0.29838046 -0.34283626 -1.498914 0.80355024
0001d0 4d 12 62 3e 77 90 d1 bf fc a1 62 3e 4f 18 95 3c
       0.22077294 -1.6372212 0.22132105 0.018200068

l3.bias f4 [15]
000000 79 7c 51 be e6 c4 96 bc 87 f1 65 3e ca d9 84 3e
       -0.20457639 -0.018404435 0.22455417 0.2594741
000010 78 e2 85 3e 5d 72 f2 3b be 32 b1 3e 58 81 eb 3e
       0.26149344 0.007398887 0.34609026 0.4599712
000020 db 8b bc bd a7 a5 b5 3e c9 25 57 bd f4 2b 38 be
       -0.09206363 0.35477945 -0.05252627 -0.17985517
000030 57 d6 cf bd 28 cc 24 bf ff 71 32 3d
       -0.10148304 -0.6437402 0.043565746
