data.pth (torch, 157994 bytes, 6 tensors)

l1.weight f4 [8, 2945]
00000000: 57fe 19bc 46b8 9abc f24e d2bd 8c95 aebd
00000010: 5554 c03f 6338 f13c 7b2c 99bc ba63 253e
00000020: db73 2bbf c081 6bbf f1c3 1b3e 8de7 243e
00000030: 6504 43bc 21c2 633f 0552 2a3e 1a3d b63e
00000040: a3d8 723f 1cc3 923f abdb 8abf fc3c 51c0
00000050: f677 6abc 6255 41be 8cb0 e63f bd20 1340
00000060: a7bb 133f 9b86 123f f919 4240 c545 3fbe
00000070: 9e9c 473f 8995 6e3f be3d 26be 5268 b73e
00000080: 9fe5 0340 60bb 803f 9cba c83f 41d8 173e
00000090: 0151 33bf 37f2 a93f 5ec9 473f 0721 0f40
000000a0: d00d ce3f 2742 f43e 171c fe3d be33 023f
000000b0: da22 d7bd 10b9 9f3f 6d3b b33e a65d 1040
000000c0: a6f7 ce3e 1957 08c0 6596 90bf 2888 c23e
000000d0: 9786 3dbe fd4b 2040 fc4d bf3f f029 c23f
000000e0: 0da5 ea3f 6a35 9bbd d4f6 013f 0cd0 8c3f
000000f0: 6a80 113f 660c 473f 2c0c c7bf ada6 db3f
00000100: dd7a b53f d335 733f ed44 cd3e 41b4 d73d
00000110: 70f3 a03d 2ef5 363d e927 a3bc cc0d 053d
00000120: 2f77 babc 1668 293b 5079 4e3c df23 0e3e
00000130: 5f2f 7e3f a1ca 4540 e2c6 e83f 32eb b23e
00000140: c705 2140 01e9 673f 253d 7fbf 59d0 1140
00000150: 2ec4 80c0 1226 e33f 99ec bfbd 01bb a83f
00000160: 75f4 b53e b979 2040 a2e1 073e efa1 9dbc
00000170: 6173 7fbf 91c7 9e3f 6656 09bf 25cb 043f
00000180: e513 3abe 6f11 58bf 649f 36be 970c a23f
00000190: fdcc 043f df44 af3f e2d2 bd3f 3d6a 533f
000001a0: 3cdc 6ac0 c830 5c40 63d3 bd3e 6860 763f
000001b0: 5555 2f40 9165 76be 8bf7 6dbe b9fb 0e40
000001c0: 6156 e03f 68df 703f f10d 7fbe d7ef 6640
000001d0: 36bc 493f 9f72 3d3f 9d9c a63f ab12 9f3f
000001e0: 4c63 cd3f 79ad f43f fcad af3e 607d d63f
000001f0: 0eb1 d13f 60c1 4fbf 9582 6abe ca66 d33e
00000200: 18d6 8f3f 2aa5 e73f 34e6 0240 4c55 703f
00000210: 7c95 913f c7ff b23d 03e6 07bf a5f6 3440
00000220: c6c6 c9bc 6fb1 0ebe b5e2 9f3e 168a d13e
00000230: 2ba4 473f 64e9 eabf 6621 c43f 90ee 19c0
00000240: 35cd 00be 55d9 b23e 9fa1 a23f 0344 5540
00000250: b58e cd3f 47cc 1840 ee0c d23f d050 b43e
00000260: 729c cf3f 22b8 08c0 325a dc3e eb51 4fbe
00000270: ce0e db3f c65d 4abf b5ae 32be 03df 573c
00000280: 58e0 9fbd 2af9 e33f 5390 85bf 0333 6640
00000290: f40f 33bf 9663 b63f 031e dbbd 4600 3c3f
000002a0: 6f93 e5bf 5562 4540 0299 763f 92bd 983e
000002b0: 486a 2c3f 4479 2e3f 6ff5 0140 49bc ab3f
000002c0: 52f8 30bf 323c e83f 767d 0abe 97a0 4c3d
000002d0: cf67 b53f e496 07bf a480 9cbe fb86 fa3e
000002e0: 018f 113f b81a 9e3f a50f d73f 17c2 093f
000002f0: 0f0c c0bf ea71 cd3f cf74 233f a22c b5be
00000300: af8c c93f c970 1e3f 289e 3f40 16ce 003f
00000310: 9add 56bf 6a93 8040 ea41 c8bf 634e 21bf
00000320: 1568 953f 3d8d aa3f f733 ecbf 08dd 3a3e
00000330: a39f 54bf 7d64 dd3f 4104 f33f bd8f 4bbe
00000340: 38b6 07bf 7d84 5040 977d 3b40 7cb8 143f
00000350: 1639 e6be ff54 32bf 4b1c 2e3f 4376 f83e
00000360: f47b d53f 82f5 c4bf 5fa4 11bf 251f da3f
00000370: f132 9c3f 22c4 36be f5ec 5abf 3471 b93f
00000380: 625e e1bd ced0 fb3e a534 7640 4cee 883f
00000390: 797b 1340 6852 17bf 6086 563e db59 fa3f
000003a0: d241 b1bf e376 1ebe 5bc9 ec3e ac99 ea3e
000003b0: e496 24bd e277 903f 2467 f3be a8a8 0940
000003c0: a578 9a3f 7cce 1440 bcca 9dba c7dd 46bf
000003d0: 5d06 6c3e c70f 40bf a7a3 c13f 1db3 0a3f
000003e0: b553 8ec0 b69a ccbf 86f8 2040 1628 4a3f
000003f0: e55c 463e 0c62 4340 1240 24be 3f60 3bbe
-0.009399018 -0.018886697 -0.10268964 -0.085246176 1.5025736 0.029445833 -0.018697968 0.16151324
-0.66973656 -0.9199486 0.15211464 0.16103955 -0.011902903 0.8896809 0.1663285 0.35593492
0.9486181 1.1465793 -1.0848287 -3.2693472 -0.0143108275 -0.18880227 1.8022628 2.2988732
0.5770821 0.5723664 3.0328352 -0.18678959 0.77973354 0.9319692 -0.1623449 0.35821778
2.06089 1.0057182 1.5681949 0.14828588 -0.7004548 1.3277043 0.78041637 2.2363908
1.6097965 0.4770672 0.124077015 0.508602 -0.10504694 1.2478352 0.35006276 2.2557158
0.40423316 -2.130316 -1.1295897 0.37994504 -0.18508373 2.504638 1.4945674 1.5169048
1.833162 -0.07578547 0.50767255 1.1000991 0.5683657 0.77753294 -1.555059 1.716024
1.417812 0.95004004 0.4009165 0.105324276 0.07858932 0.044667415 -0.019916492 0.03248386
-0.02276191 0.0025849394 0.012602165 0.13880871 0.9929103 3.0904925 1.8185694 0.34945065
2.5159776 0.9058991 -0.99702674 2.2783415 -4.0239477 1.7745993 -0.09371299 1.3182069
0.35538068 2.5074294 0.13269666 -0.019242255 -0.9978543 1.2404653 -0.5364746 0.51872474
-0.18171652 -0.844016 -0.1783424 1.2660092 0.5187529 1.3692893 1.4829981 0.8258398
-3.669692 3.4404774 0.37075338 0.96240854 2.7395833 -0.24062182 -0.23238961 2.234114
1.7526361 0.9409089 -0.24907662 3.6083887 0.7880281 0.7400302 1.3016545 1.2427572
1.6045928 1.911544 0.34312427 1.6757011 1.6382158 -0.8115444 -0.22901376 0.4128936
1.1237211 1.8097279 2.0453005 0.9388015 1.1373744 0.08740192 -0.53085345 2.827554
-0.024630915 -0.13934873 0.3122765 0.40925664 0.77984875 -1.8352475 1.5322692 -2.4051857
-0.1257828 0.34931436 1.2705573 3.332276 1.6059176 2.387468 1.6410196 0.35217905
1.6219618 -2.1362386 0.43037564 -0.20246093 1.7113893 -0.79049337 -0.17449458 0.013175729
-0.07806462 1.7810414 -1.0434669 3.5968635 -0.6994622 1.4249141 -0.10699084 0.7343792
-1.7935618 3.0841267 0.9632722 0.2983213 0.6734967 0.68153787 2.030605 1.3416835
-0.69128907 1.814337 -0.13524422 0.049957838 1.4172305 -0.52964616 -0.30566895 0.48931107
0.5685883 1.2351904 1.6801649 0.5381178 -1.500368 1.6050389 0.6385011 -0.35385615
1.5746058 0.61890846 2.994028 0.5031446 -0.8393189 4.017995 -1.5645115 -0.63010234
1.1672388 1.3324353 -1.8453358 0.18248379 -0.83056086 1.7296292 1.8985673 -0.1987905
-0.5301242 3.2580864 2.9295404 0.58094 -0.44965428 -0.69660944 0.6801192 0.48527727
1.6678452 -1.5387423 -0.56891435 1.7040755 1.2203046 -0.17848256 -0.8551782 1.4487672
-0.1100433 0.49182743 3.8469632 1.0697722 2.3044112 -0.59110117 0.20949697 1.9558672
-1.3848212 -0.15475039 0.46247372 0.45820367 -0.040182963 1.1286585 -0.47539628 2.150919
1.2068068 2.3251028 -0.0012038569 -0.77682155 0.23049302 -0.75024074 1.5128068 0.54179555
-4.447718 -1.5984714 2.5151687 0.78967416 0.19371374 3.0528593 -0.16040066 -0.18298434

l1.bias f4 [8]
00000000: 1dcc 703f 5ec1 a33f 6114 5b3f 585e 693f
00000010: 26c4 a33f 5af3 6a3f 75ae 323f 939d 333f
0.9406145 1.2793386 0.8557797 0.9115958 1.2794235 0.91777575 0.6979745 0.70162314

l2.weight f4 [8, 8]
00000000: 82f1 8e3f 8bbf 233f 3f62 523f a954 d9bf
00000010: 69fd 6bbf 9ba8 233f 3d69 6f3f 1c58 c8bf
00000020: 2c70 923f ae07 0ec0 51ac c9be 8295 3340
00000030: cc00 6d3f d6ca e23f 77c8 84bf 2625 23c0
00000040: 63c0 8f40 6df5 483f 8b55 06bf b8e4 efbe
00000050: 05c5 3840 f03d a0bf 5464 20c0 aee2 ffbe
00000060: bdb4 24c0 ccb0 39bf 2969 4840 af28 003f
00000070: 28dc 5240 9c92 e13f b3de 2f40 4b57 2cbf
00000080: 1a29 cf3f 85b1 63c0 ba0b 3340 30f0 913f
00000090: bb8f 6dbf 75f0 f73f 5168 76c0 7047 9140
000000a0: 2c19 473f 472e 6f40 ffe9 53c0 2818 56bf
000000b0: e20a 5e3f 1141 8340 e9c2 24c0 be78 513e
000000c0: e4e2 2fbe c2d3 a93c 8eaa 263b 4527 5cbb
000000d0: 97a2 043d 06cb c0bc dd7a c1be f51f b1be
000000e0: c5ea a63f 4827 e33f ff33 b9bf e5ee 8840
000000f0: d530 b4bf ee81 b6bf 8236 f53f a896 d53f
1.1167452 0.63964146 0.8218116 -1.6978961 -0.9218355 0.63929147 0.93519956 -1.5651889
1.1440482 -2.2192187 -0.3938928 2.8060002 0.9257934 1.7718151 -1.0373677 -2.5491424
4.4922347 0.7849949 -0.5247428 -0.46854186 2.887025 -1.2518902 -2.5061235 -0.4997763
-2.5735314 -0.72535396 3.1314185 0.5006208 3.2946873 1.7622867 2.7479675 -0.673207
1.6184418 -3.55771 2.7975907 1.1401424 -0.9279744 1.9370257 -3.850117 4.5399704
0.77772784 3.7371995 -3.311157 -0.8363061 0.86735356 4.1016927 -2.5743964 0.20456216
-0.17176396 0.020730857 0.0025431248 -0.0033592742 0.03238162 -0.02353431 -0.3778905 -0.34594694
1.3040396 1.7746363 -1.4468993 4.279162 -1.4077402 -1.4258401 1.915726 1.6686602

l2.bias f4 [8]
00000000: 8c03 b4bd 65b5 5bbf 2718 9e3f a415 7abf
00000010: ec56 4c3f c282 0f3f 7f3b 80be afca 67bf
-0.08789739 -0.8582366 1.2351121 -0.9768927 0.7982013 0.56058896 -0.25045392 -0.90543646

l3.weight f4 [110, 8]
00000000: 8265 433e 61d8 a6c1 a668 92bd 98ab 113f
00000010: 65e6 493c cfa7 b2bf b4d6 fb3c 2cf4 8ac1
00000020: c41e 3ac1 3749 61c1 907f 20c1 fb64 293f
00000030: 61f6 6f3f 5740 9abf c622 a53d 9006 76c0
00000040: 213e d2c1 82f3 a9bd ef98 2fbf 4f62 6f3e
00000050: c1cf 0fbf 654d 82bf 56fd bcbe 05d6 f8be
00000060: 0b96 42c0 e907 0640 4fc2 fdc0 55cd 49c0
00000070: 0779 a53f 1357 00c1 d2ea 0a3e a2d5 bdbe
00000080: b9ef 7b3e c4a2 1ec1 5236 61c1 dc4e 14bf
00000090: 01d9 f3bf e566 cb3f 2db0 da3c 5f59 c3bf
000000a0: 0f18 4cc1 b8a0 8fbf 5fd9 4d3f c099 55bc
000000b0: 3b6f 11c1 db5c 26c1 5eea f13d 0165 353f
000000c0: d827 82c0 d661 4bc0 e573 2e3f cc93 abbe
000000d0: 2f21 44c1 b9ae afc0 3d75 3d3e 8ca4 b93f
000000e0: fa6f 35bf 7729 67bf c918 1dbf f282 40bd
000000f0: 2cf7 82c1 fbdf 823f 8c12 4bbe 1d9a 2bc0
00000100: 7159 adbf c6fe 12c1 1506 61be b320 0e3f
00000110: 4894 89c1 2192 473f d5ca d4be 76e1 1abf
00000120: 38f8 42bf 7770 dabf 2262 07bf a819 1f3f
00000130: 0bc8 1fc1 a624 223f bf25 6b3e 7c4f fcbf
00000140: ab93 9cbf 893a 5fc1 d2f3 2a3e 6bb9 b43e
00000150: 533e 57c1 3cc3 0b3f 9a20 c8be c052 e1be
00000160: 9c8c e3bf a413 48bf c60f 10be 967c 133f
00000170: a292 95c1 d1d1 48bf b2ad 26be 848b 6dbe
00000180: ef24 c53f 521f 7940 e507 a93f 28cd 1cc1
00000190: f0ea c3bf fbf9 44c0 692c 3ebd c3c7 8cc0
000001a0: d24e 18c0 d3f8 c4c0 0ec4 cfbf 951c bdc0
000001b0: d024 df3f 7860 ae3f f05c aebd f9ff 33c0
000001c0: e5bb b0bf a365 4dc1 1f36 2bc1 a509 23c0
000001d0: c580 9abe 2813 12bf 57d2 f4bd 214f e23f
000001e0: c2a3 d5be face a8bf 052b e53e 256f abc1
000001f0: 24f6 b5bf 1895 5a3f f09c 4f3d c1c8 4c3d
00000200: 186e 01c0 0a53 e3be fd2b 483f 75eb ddbf
00000210: 6590 adc1 923a 973f 0ffd e2be 93ad 29c1
00000220: b8ae 8fbe c73f 8ebe b529 ed3e cc32 66c1
00000230: 88f5 0dc0 0aa9 9b3e f6d0 31be b268 403f
00000240: dd96 8cbe b0f3 bdbf 10b4 783f b0d6 efbf
00000250: bfb6 cec0 cff7 af3e e2c6 a43d a020 a2bf
00000260: 1621 cbc0 06d9 bac0 9db1 733f c913 21bf
00000270: b33d 8fc1 5ddf 843f 9f0d c0be fc30 81c0
00000280: 84a3 eebf 76a9 17c1 f95b 9f3e 5053 95bf
00000290: cbcb 773e 5cf2 733e 2fe4 013e acb1 6cbf
000002a0: e728 b1c1 4b75 a9bd f3ff ae3e 66ef 11c0
000002b0: 63f7 3bc0 3a54 e53e 2b7b 97be 4f22 003f
000002c0: cd5f d6bd 647d 1fbf 169a cc3e 81ed abbf
000002d0: f25d 93bf 1c17 04bf 66f7 79bb 3acd 1f3f
000002e0: 8508 96bf 657d 07c0 89f6 17bf bb23 68be
000002f0: 799d 023f 8a71 14bf f0c1 b93d bf0d 02be
00000300: 62b7 e4c0 3f2d f1c0 9b0b 0cc1 88f9 c3bf
00000310: 9d9a 1ec0 4047 0640 471d cdbe e07e 1a3f
00000320: 3518 10c1 e8dd 31bf 05d3 3f3f afad 71be
00000330: 52b0 79c0 9690 68bf b778 c7bc 4e07 adbe
00000340: 3268 923e 5c43 fcbf 848c 2ec1 7a74 83bf
00000350: e8fa ee3f a419 0cc0 738e 4f3e 2ee4 05c1
00000360: 342a 93bf 6528 d6be 96f1 a6bf 1cc9 b33e
00000370: ba9b 60bf 3702 1cbd 4e9f 003e 0ad1 21bf
00000380: 18b8 c0c0 8cf8 04c1 bc69 63c0 b791 b0bc
00000390: 7993 783f 0a98 56bf 9504 3bbd eeca 4bbf
000003a0: b932 05c1 9ed9 31c1 30a7 283f d4ab 863f
000003b0: b6d4 5ec1 4bb1 03bf 904c 7fbe fa10 06c1
000003c0: 97ea 2140 3097 73c1 1456 58c1 e480 fbbf
000003d0: 81ef 0f3f 391c 2dc1 27ae a9be 0bf2 a53f
000003e0: 72c4 883e 3d96 293f 2b4f cdbe 0b39 03bf
000003f0: 57a9 12c0 08f8 3abf d903 9dbd 810b 9e3e
0.19081691 -20.855654 -0.07148866 0.56902456 0.012322997 -1.3957461 0.030742027 -17.369225
-11.632511 -14.080375 -10.031143 0.6616971 0.9373532 -1.2050885 0.08063273 -3.8441505
-26.280336 -0.082983986 -0.68592733 0.23377346 -0.5617638 -1.0179869 -0.3691203 -0.48600784
-3.040408 2.0942328 -7.9299693 -3.1531575 1.292756 -8.021258 0.1356614 -0.3707705
0.24603166 -9.914738 -14.075762 -0.5793283 -1.9050599 1.5890776 0.026695335 -1.5261649
-12.755874 -1.1220922 0.80409807 -0.013037145 -9.089656 -10.39767 0.1181228 0.70857245
-4.0673637 -3.1778464 0.6814559 -0.33511198 -12.258101 -5.4900784 0.18501754 1.4503341
-0.7087399 -0.90297645 -0.61365944 -0.04699988 -16.37069 1.0224603 -0.19831294 -2.6812813
-1.354292 -9.187201 -0.21974976 0.55518645 -17.197403 0.7795735 -0.41561 -0.60500276
-0.7616 -1.7065572 -0.52884114 0.62148523 -9.986339 0.6333717 0.22963618 -1.9711757
-1.2232565 -13.951791 0.16694573 0.35297713 -13.452716 0.5459478 -0.39087373 -0.44008446
-1.7777286 -0.7815497 -0.14068517 0.5761198 -18.696598 -0.78445154 -0.16277197 -0.23197752
1.5401896 3.8925366 1.3205534 -9.800087 -1.5306072 -3.0777576 -0.04642907 -4.399385
-2.3798108 -6.155374 -1.6231706 -5.909739 1.7433109 1.362319 -0.0851382 -2.8124983
-1.3807341 -12.837314 -10.700713 -2.5474637 -0.30176368 -0.5706048 -0.11954182 1.7680398
-0.417265 -1.3188164 0.44759384 -21.42927 -1.4215741 0.8538375 0.050686777 0.04999614
-2.0223446 -0.4439929 0.7819212 -1.7337481 -21.695505 1.1814749 -0.44333693 -10.6048765
-0.28062987 -0.27783033 0.46320882 -14.387402 -2.218111 0.30402404 -0.17364869 0.7515975
-0.2745885 -1.4839993 0.97149754 -1.8737392 -6.459808 0.3436875 0.080457464 -1.2666206
-6.347789 -5.838992 0.9519289 -0.62920815 -17.905127 1.0380665 -0.37510392 -4.0372295
-1.8643651 -9.478872 0.31124857 -1.166605 0.24198835 0.23822922 0.12684701 -0.92458606
-22.144972 -0.08274325 0.3417965 -2.2802367 -2.9369743 0.44790822 -0.29586157 0.5005235
-0.10467491 -0.62300706 0.39961308 -1.3431855 -1.1513045 -0.5159776 -0.0038141846 0.62422526
-1.172135 -2.1170285 -0.5936056 -0.2266988 0.51021534 -0.57985747 0.09070194 -0.12700556
-7.1473856 -7.536773 -8.752833 -1.5310526 -2.4781868 2.0980988 -0.400614 0.60349846
-9.00591 -0.6947923 0.74931365 -0.23601411 -3.9013867 -0.9084562 -0.024349554 -0.33794636
0.2859512 -1.9708056 -10.909306 -1.0269921 1.867032 -2.189065 0.20269184 -8.368208
-1.1497254 -0.41827694 -1.3042476 0.35114372 -0.8773762 -0.03808805 0.1256077 -0.63209593
-6.0224724 -8.31068 -3.5533285 -0.021553857 0.97100025 -0.83825743 -0.045658667 -0.7960652
-8.324883 -11.115629 0.6588011 1.0521188 -13.926931 -0.514424 -0.2493155 -8.379145
2.5299432 -15.224411 -13.521015 -1.9648709 0.5622483 -10.81939 -0.3314068 1.2964491
0.26712376 0.6624487 -0.40099463 -0.51258916 -2.2915857 -0.73034716 -0.076667495 0.30868152

l3.bias f4 [110]
00000000: 3c3b 27bf f598 e0c0 8c3f b5be ef84 8ac0
00000010: b992 5540 fbc9 2d3f 0068 e03f 98eb 833f
00000020: 3288 a0bf c6b2 e1bd e48f 81bf 886c 1cbf
00000030: 149c 8ac0 c2ec 18c1 9a34 3a40 f1c0 11bf
00000040: 1548 91c0 5086 f2bd 0408 09bf 4180 0cc1
00000050: ecf7 84be 9af7 74be 46cf 2fbe 82be c0bf
00000060: a361 00c1 16c4 2bbf 78c8 a83f 7bc7 98bf
00000070: 07c8 a73f 7f49 7ec0 7c39 eb3e 9f6d d0bf
00000080: 3ec4 3b3e 1d83 aec0 1570 9cc0 3da1 233e
00000090: 47f1 49c0 af5b 1dc0 6cdd d7c0 d5ad c6c0
000000a0: 21a3 0e40 29bb d6bd b6e9 843d e34c 93bf
000000b0: 6d16 f53e 81a7 3abf c6c1 43be f844 97c0
000000c0: 0d61 66be 865d 15c1 ffc0 df3e 8fc3 cc3e
000000d0: 1b4c cac0 76ea 17bf 74a1 ccbe 2a93 ddbf
000000e0: 0669 733f 9b8e c9c0 1754 523e a1d4 dbbd
000000f0: 102f a0c0 7523 a8bf a520 c4be 716e 8840
00000100: 0f6b 4bbf 8de4 b4c0 95fa 9c3f 6c20 21bf
00000110: a180 dbc0 6b5b 5c3e 5da5 ddc0 0170 bbbe
00000120: 1621 1cbf d4ff 02c0 2927 abc0 4c3c 26bf
00000130: 9f5b b9c0 6507 06c1 802b 3b3e b045 3f3e
00000140: 87f6 9a3e b3a4 48bf 2fee f1c0 c8ba 7d40
00000150: 4ae5 35c0 8712 2cc0 07bd 0a40 57e6 3c3e
00000160: b89a f83f 131d bebf cdda b7bf 642d ba3e
00000170: 86e8 e0c0 0c40 7cbf 3861 b0c0 283c e3c0
00000180: b66a 99c0 0b6b a43e 6772 8cbf 5fbb 1dc0
00000190: fa83 21c1 f5fb ffbe ec0f cbbe 0ecc 87bf
000001a0: 43c7 4d3f ab00 2c40 6ab5 87be e8b1 3dc1
000001b0: 4c5d 95c0 ef16 49c0
-0.6532476 -7.0186715 -0.35400045 -4.3287272 3.3370802 0.6788632 1.7531738 1.0306273
-1.2541564 -0.110204265 -1.0122037 -0.61103106 -4.3315525 -9.557802 2.9094605 -0.5693503
-4.540049 -0.11842024 -0.53527856 -8.781312 -0.259704 -0.23922578 -0.17168912 -1.5058138
-8.023837 -0.6709608 1.3186178 -1.1935877 1.3107919 -3.9732358 0.45942295 -1.6283454
0.18336579 -5.453505 -4.888682 0.15979476 -3.1553514 -2.458721 -6.745779 -6.2087197
2.2287066 -0.10484917 0.06489889 -1.1507839 0.47868672 -0.7291184 -0.19116887 -4.727169
-0.2249796 -9.335333 0.43701932 0.3999295 -6.32179 -0.59342134 -0.3996693 -1.7310536
0.9508213 -6.298658 0.2053989 -0.10733915 -5.005745 -1.3135821 -0.38306156 4.2634816
-0.79460233 -5.6528993 1.2263972 -0.62940097 -6.859452 0.21519248 -6.926436 -0.3660889
-0.60987985 -2.0468645 -5.3485303 -0.64935756 -5.792434 -8.376805 0.18278313 0.18678927
0.3026621 -0.7837631 -7.560325 3.9645252 -2.8421197 -2.6886308 2.1677873 0.18447243
1.9422216 -1.4852623 -1.4363648 0.36362755 -7.028384 -0.9853523 -5.5118675 -7.1010933
-4.794276 0.32112917 -1.0972413 -2.4645612 -10.094721 -0.49996915 -0.39660585 -1.0609148
0.80382174 2.6875408 -0.26505595 -11.855934 -4.667639 -3.1420248
